credit_model.pt (torch, 10209 bytes, 13 tensors)

net.0.weight f4 [32, 10]
-0.03532532 0.23946853 -4.620343 0.11359661 0.22452275 -0.2907555 -8.937618 -0.1729132
-6.827203 -0.3836616 2.130225 -1.4346694 0.659653 0.003976947 0.20665604 0.43713266
0.26007897 0.6361768 -1.2498746 -0.22368488 -2.1484275 0.95409137 -0.6107958 0.5867077
0.45286113 -0.45945132 0.40136796 -0.76524585 1.0850977 -0.6393346 2.16086 -1.2466573
0.9974455 0.1476534 -0.18367162 0.0823193 -0.44301543 0.9965593 -0.75940585 0.09448204
-1.6164689 1.0794024 -0.25299558 0.15311892 1.3667321 0.011288146 -0.043782383 -0.71554786
1.2285528 -0.52771115 -0.07875764 0.12664013 -4.723189 0.31517652 0.17089511 -0.27133462
-9.265544 -0.09048782 -6.641987 -0.15201505 0.36109477 -0.09130033 2.1708055 -0.18464787
0.11637364 0.22669488 7.756312 -0.25729734 5.0211053 -0.26428908 0.12457103 0.083418265
-4.6075497 0.34823012 -0.040434726 -0.17772332 -7.130225 0.03882742 -5.2459974 -0.072159626
0.28212878 -0.0580435 1.0176063 0.35244244 0.10688539 -0.19167677 8.4903145 -0.26286852
6.1684537 -0.07787889 -0.13476475 0.36217445 -3.5036156 0.2446343 0.40352905 -0.041183442
-9.755535 -0.17538315 -5.883706 0.05712425 0.015248864 -0.100764625 -1.6561735 -2.2502701
0.42678148 0.062128995 -6.5796943 -0.17140844 -4.88435 -0.3258589 -2.489374 0.5092934
-1.3287381 0.6560815 0.53741586 -0.4525045 0.103971295 -1.2033789 0.7824103 0.1413252
0.35041308 -0.45648134 1.8755181 0.072416365 -0.029903838 -0.0986173 5.9169188 0.44710547
5.5894494 0.09765102 0.48108196 -0.34492087 3.0361857 -0.06405495 0.012496205 -0.110324405
5.369303 -0.5926406 5.387362 -0.006099551 2.9822862 -1.3673565 0.2751654 -0.058655586
-0.2566076 0.7995941 -0.14602958 -0.16740057 -1.1013404 0.05598558 -0.66328067 0.54635495
-4.921431 0.24135965 0.015048863 -0.43896464 -5.209015 -0.44235507 -2.8568697 0.4257264
0.9845192 -0.11787319 3.3165324 -0.19610448 -0.019124078 0.06975805 7.162994 -0.0076980167
4.8430514 0.04560703 -1.5168775 1.5830445 -0.8574525 0.9124742 0.88591576 -0.50448376
0.14212273 -0.9521046 0.69095224 -0.11406471 0.4727649 0.2808532 2.953015 -0.014603988
0.23286508 0.21312778 6.937656 -0.15685044 5.873777 -0.026271194 -0.26173967 0.24437876
-5.1398935 -0.21965773 -0.011696923 -0.26421252 -6.705951 -0.104905404 -6.5995784 0.009372064
0.06452574 0.19165878 -1.8813708 0.26961365 -0.053351626 -0.39871314 -7.226513 -0.1405617
-6.2449765 -0.2499483 -1.2139804 0.06731119 -5.1895247 -0.13937956 0.16137598 -0.23603624
-4.611253 -0.3061853 -3.9446628 0.30902278 1.596349 -0.37252307 1.2224325 -0.233254
0.31482863 0.47789314 -0.50983196 -1.9651951 -1.0904926 0.38021138 3.251685 -0.19211456
0.37229115 -0.032694157 -0.3572224 0.8667011 0.11141636 -0.15276796 -0.8909968 0.035135716
-0.018853849 -0.11355201 -2.5853958 0.44499117 0.28585505 -0.18905829 -6.7426653 -0.1760496
-6.427897 0.40457293 0.1648534 -0.2943038 -1.4846935 -0.4873984 0.5163686 -0.16213323
00000000: 48b1 10bd 3d37 753e dad9 93c0 57a5 e83d
00000010: 4be9 653e e8dd 94be 7c00 0fc1 2810 31be
00000020: 7278 dac0 4b6f c4be 9b55 0840 3fa3 b7bf
00000030: 05df 283f 0d51 823b a49d 533e dacf df3e
00000040: 1229 853e 7cdc 223f e4fb 9fbf a60d 65be
00000050: d67f 09c0 553f 743f 1d5d 1cbf 7a32 163f
00000060: 6add e73e 343d ebbe 1a80 cd3e 27e7 43bf
00000070: 7be4 8a3f 6fab 23bf 884b 0a40 7792 9fbf
00000080: 9758 7f3f 7432 173e 6a14 3cbe 0597 a83d
00000090: ebd2 e2be 831e 7f3f 6c68 42bf cd7f c13d
000000a0: 74e8 cebf dc29 8a3f a388 81be 35cb 1c3e
000000b0: 14f1 ae3f eaf1 383c 2855 33bd 252e 37bf
000000c0: 3841 9d3f 1418 07bf b04b a1bd f3ad 013e
000000d0: 5d24 97c0 d15e a13e 21ff 2e3e 5fec 8abe
000000e0: ab3f 14c1 ae51 b9bd 288b d4c0 d5a9 1bbe
000000f0: 6ae1 b83e abfb babd 7aee 0a40 5514 3dbe
00000100: 4e55 ee3d b422 683e b533 f840 7abc 83be
00000110: e5ac a040 e650 87be 191f ff3d 32d7 aa3d
00000120: 0c71 93c0 384b b23e e29e 25bd 1afd 35be
00000130: ce2a e4c0 8009 1f3d 36df a7c0 6dc8 93bd
00000140: 2f73 903e 05bf 6dbd ec40 823f 5673 b43e
00000150: bae6 da3d ea46 44be 54d8 0741 b496 86be
00000160: f963 c540 f87e 9fbd c5ff 09be ee6e b93e
00000170: 3d3b 60c0 6a81 7a3e 5c9b ce3e f8af 28bd
00000180: ac16 1cc1 a497 33be 5247 bcc0 1efb 693d
00000190: 5fd6 793c af5d cebd 7efd d3bf 6d04 10c0
000001a0: 1a83 da3e f97a 7e3d db8c d2c0 b285 2fbe
000001b0: 984c 9cc0 fad6 a6be e751 1fc0 0d61 023f
000001c0: 1714 aabf f5f4 273f 1694 093f abae e7be
000001d0: e7ee d43d 5208 9abf 0b4c 483f 8eb7 103e
000001e0: 5869 b33e ecb7 e9be fa10 f03f 084f 943d
000001f0: e5f8 f4bc def7 c9bd 6657 bd40 02eb e43e
00000200: c5dc b240 42fd c73d 6050 f63e 7899 b0be
00000210: de50 4240 3e2f 83bd e2bc 4c3c c3f1 e1bd
00000220: 55d1 ab40 4bb7 17bf 4565 ac40 bede c7bb
00000230: c7dd 3e40 8a05 afbf 7be2 8c3e d740 70bd
00000240: 1262 83be 33b2 4c3f c788 15be 0e6b 2bbe
00000250: b9f8 8cbf 2351 653d c3cc 29bf ebdd 0b3f
00000260: 5d7c 9dc0 fc26 773e 828f 763c f9bf e0be
00000270: 40b0 a6c0 5d7c e2be f4d6 36c0 d0f8 d93e
00000280: 7309 7c3f 8067 f1bd 1142 5440 9dcf 48be
00000290: 19aa 9cbc 4fdd 8e3d 3f37 e540 a53f fcbb
000002a0: 47fa 9a40 70ce 3a3d 0b29 c2bf 34a1 ca3f
000002b0: 0282 5bbf e997 693f 60cb 623f d925 01bf
000002c0: 9f88 113e 21bd 73bf 3fe2 303f c29a e9bd
000002d0: 3e0e f23e fecb 8f3e 33fe 3c40 9145 6fbc
000002e0: 2f74 6e3e 2b3e 5a3e 4701 de40 679d 20be
000002f0: fbf5 bb40 b036 d7bc be02 86be 6d3e 7a3e
00000300: 027a a4c0 f5ed 60be 73a4 3fbc dd46 87be
00000310: 2797 d6c0 a5d8 d6bd bf2f d3c0 498d 193c
00000320: 1226 843d 3342 443e c2d0 f0bf cd0a 8a3e
00000330: 3c87 5abd 2124 ccbe 983f e7c0 68ef 0fbe
00000340: d9d6 c7c0 72f2 7fbe b663 9bbf 73da 893d
00000350: 9610 a6c0 84b9 0ebe bf3f 253e 7cb3 71be
00000360: 628f 93c0 52c4 9cbe 5b75 7cc0 3c38 9e3e
00000370: 2a55 cc3f 58bb bebe ab78 9c3f 23da 6ebe
00000380: 3831 a13e 69ae f43e 5984 02bf 838b fbbf
00000390: 4395 8bbf 11ab c23e 9b1b 5040 aeb9 44be
000003a0: f29c be3e 4fea 05bd dbe5 b6be 20e0 5d3f
000003b0: 432e e43d 346f 1cbe 5e18 64bf 78ea 0f3d
000003c0: 6373 9abc f58d e8bd 2077 25c0 e2d5 e33e
000003d0: 985b 923e 7f98 41be eac3 d7c0 5946 34be
000003e0: 55b1 cdc0 2f24 cf3e 54cf 283e fdae 96be
000003f0: 700a bebf 488c f9be bc30 043f 4106 26be

net.0.bias f4 [32]
0.1873799 0.14765543 0.12806875 -0.2025721 -0.41952536 -0.22065477 0.22040512 -0.16523544
0.11172382 -0.757915 -0.067398496 -0.3195027 -0.65736455 -0.088355154 -0.34291345 -0.024867872
-0.9130086 -0.15718283 -0.05456841 -0.012285588 -0.0905892 -0.47316217 -0.13356385 -0.124230154
-0.13959281 0.26847067 0.24280822 -0.082212545 0.27441335 0.5108437 0.24459809 0.01158735
00000000: 84e0 3f3e fc32 173e 7424 033e 106f 4fbe
00000010: 07cc d6be 53f3 61be e1b1 613e 7b33 29be
00000020: 75cf e43d b806 42bf 3908 8abd dc95 a3be
00000030: 0b49 28bf 8cf3 b4bd 5a92 afbe b5b7 cbbc
00000040: eeba 69bf 89f4 20be 2083 5fbd 7e49 49bc
00000050: d586 b9bd 5042 f2be f6c4 08be 616c febd
00000060: 6bf1 0ebe fd74 893e b8a2 783e 0d5f a8bd
00000070: e87f 8c3e a7c6 023f ec77 7a3e ded8 3d3c

net.1.weight f4 [32]
3.7527559 1.7699285 1.2362006 1.7520449 0.8736539 3.2690048 1.48482 2.440309
1.4876823 3.125344 2.1194499 1.3720194 1.4865468 1.7358714 1.9570636 1.6907438
1.9134544 1.4141349 1.6256548 2.797847 1.7084384 1.876145 1.5075026 1.5921745
1.4032941 0.9731359 1.6979157 0.879445 1.6941326 1.5821528 1.4971876 1.680328
00000000: 272d 7040 048d e23f d23b 9e3f 0243 e03f
00000010: c8a7 5f3f 6037 5140 950e be3f 062e 1c40
00000020: 606c be3f a305 4840 11a5 0740 559e af3f
00000030: 2a47 be3f 0931 de3f 0f81 fa3f 4b6a d83f
00000040: 13ec f43f 5f02 b53f 7515 d03f ed0f 3340
00000050: 1cae da3f 8525 f03f d8f5 c03f 60cc cb3f
00000060: 249f b33f 6f1f 793f 4d55 d93f 4f23 613f
00000070: 56d9 d83f fc83 ca3f d8a3 bf3f fd14 d73f

net.1.bias f4 [32]
-0.32393873 -0.84166485 0.185198 -0.8590736 0.56647027 -0.16364723 0.33129606 -0.0023301833
0.5449108 0.06724203 -0.15894158 -0.029836295 -0.5797666 0.528766 -1.0017825 -0.029161764
0.66296816 0.47209707 0.50262725 0.14817442 0.28951204 -0.12230503 -0.19159816 -1.320197
0.4745285 0.5424708 0.5412191 0.41652164 -0.17740734 -0.09249351 -1.1043869 -0.11094635
00000000: 4cdb a5be 5977 57bf 8ba4 3d3e 3fec 5bbf
00000010: 3204 113f 2493 27be a39f a93e fdb5 18bb
00000020: 467f 0b3f 30b6 893d 95c1 22be 3f6b f4bc
00000030: 956b 14bf 355d 073f 693a 80bf a7e4 eebc
00000040: 48b8 293f b5b6 f13e 2eac 003f 09bb 173e
00000050: ec3a 943e 0f7b fabd 4f32 44be 37fc a8bf
00000060: 66f5 f23e 5edf 0a3f 568d 0a3f 5342 d53e
00000070: 45aa 35be 3d6d bdbd 8d5c 8dbf d737 e3bd

net.1.running_mean f4 [32]
-0.02317679 0.3065207 0.035420164 -0.045182012 -0.49356866 -0.44135055 0.39034426 -0.32646415
0.26961073 -0.96992725 -0.26813325 -0.5184555 -0.48746252 0.04184352 -0.20157851 -0.26932558
-0.7157318 -0.26714006 0.12893298 -0.25268692 -0.23761472 -0.7373928 -0.18772095 0.050233714
-0.3344078 0.122983076 0.41921017 -0.20090757 0.4411996 0.3586344 0.42833742 -0.15309167
00000000: 40dd bdbc 48f0 9c3e bc14 113d c610 39bd
00000010: 08b5 fcbe b3f8 e1be 34db c73e 4f26 a7be
00000020: 6b0a 8a3e 274d 78bf c348 89be 80b9 04bf
00000030: b094 f9be 1c64 2b3d 996a 4ebe 0be5 89be
00000040: 333a 37bf 95c6 88be 0207 043e 2e60 81be
00000050: 4651 73be c6c5 3cbf ec39 40be dec1 4d3d
00000060: 8037 abbe 8dde fb3d b7a2 d63e b7ba 4dbe
00000070: eae4 e13e ee9e b73e 0b4f db3e 10c4 1cbe

net.1.running_var f4 [32]
521.6033 8.357633 8.607029 8.684336 7.6420856 533.70087 281.30872 360.39722
310.15747 461.19693 219.97833 9.528914 226.62242 243.05368 13.268381 216.00555
299.43472 8.217498 312.57422 427.85675 295.6041 242.16316 7.728789 11.218356
310.47366 240.16594 264.36624 9.624196 7.008247 10.210259 11.423382 179.54318
00000000: 9c66 0244 ddb8 0541 64b6 0941 0af3 0a41
00000010: f78b f440 db6c 0544 84a7 8c43 d832 b443
00000020: 2814 9b43 3599 e643 74fa 5b43 6f76 1841
00000030: 579f 6243 be0d 7343 4a4b 5441 6c01 5843
00000040: a5b7 9543 df7a 0341 8049 9c43 aaed d543
00000050: 53cd 9343 c529 7243 3d52 f740 637e 3341
00000060: a13c 9b43 7b2a 7043 e12e 8443 b5fc 1941
00000070: 8f43 e040 395d 2341 2cc6 3641 0e8b 3343

net.4.weight f4 [16, 32]
0.4612001 -1.9944733 1.098318 -1.730588 0.33141112 1.1209803 -0.82711095 0.046493683
-1.440197 0.81550294 -0.5390434 0.96128416 -0.56294686 -0.5743582 -2.7117932 0.35074252
-0.78007096 1.2225513 -0.77377206 0.06464975 0.33960184 0.1850518 -1.4845725 -2.1346512
-0.7288052 -0.35818705 -1.1542053 0.4352961 -1.0041543 1.2133075 -0.37965 1.0542959
-3.1062324 0.68111044 -1.5592078 1.7115208 -2.6760209 -2.2652514 0.062365577 -1.0650256
0.28392404 -0.7459794 -1.2847617 -0.981413 0.5515889 -0.13745238 0.90489584 -1.3709252
0.17660347 -2.077698 0.28010342 -0.44839028 -1.4630573 -1.356378 0.52827275 0.7487778
-0.5550174 -1.087531 0.1585916 -2.0215805 0.3830577 -0.538359 0.03208173 -1.9164555
-1.5417053 -1.4393849 0.56820506 0.4567381 0.9297065 -3.5252683 -0.027728083 -3.567905
0.341108 -1.1438714 -1.6646324 0.7600645 0.3528968 0.7432645 0.30921832 -0.07431638
0.42258018 0.59952927 0.0776105 -2.0639162 -0.39798492 0.015112619 -0.4794074 0.5468631
-1.2563921 -1.9386444 0.33810174 0.7313439 0.049097072 0.818798 0.1620221 0.10313214
1.0547966 -1.460533 0.49108765 -1.9590837 0.3279744 0.38578346 -0.745746 0.005460031
-0.024037529 0.20918442 -0.76881987 0.66937524 -1.4371244 -0.031302784 -1.0804486 1.0885284
-1.4714382 0.89899236 -0.6608283 1.4897323 0.62255096 1.4269626 -0.57507974 -1.0333052
0.49722114 -0.28103453 -0.55374837 -0.3909076 -1.4270852 1.2695398 -2.4015982 0.63663304
0.5564282 -1.9311923 0.14089587 -2.4086382 -0.1834554 0.30079812 -1.1826513 -0.3093877
-1.7130574 0.18532886 -0.5507308 0.534532 -0.8361042 -0.7210763 -2.7818615 1.072484
-0.6539209 0.41815025 -0.5370876 0.15797666 0.51895064 0.5262911 -1.5323164 -3.109627
-0.3110531 -0.0812756 -0.7129325 0.7667133 -1.2433819 0.2175411 -0.38013163 1.1964885
-1.8519685 0.15249534 0.44168273 0.28736696 -0.46592027 -1.4666024 0.4169888 -1.8200299
0.40460432 -1.5867428 -1.7878063 1.2255491 0.14601028 0.43372688 0.044290707 -0.6690104
0.63026845 1.0866573 0.5289157 -3.3530586 -2.952779 0.47504896 -0.5867229 -0.32125717
-2.0411956 -1.3654547 0.31850147 0.14294063 -0.5633346 0.87209433 -0.05487861 0.4284105
1.037978 -1.823391 0.18866666 -2.0320115 0.16002336 0.6574255 -0.16879302 0.31889972
-0.54021657 0.6058299 0.74665755 1.4936311 0.08844264 -0.5629857 -1.6611372 1.5108356
-1.2529563 1.1167824 -0.21422979 1.0558612 0.8057376 1.7310226 -1.3954948 -2.5679362
0.20505843 -0.57665175 -0.22757274 0.918015 -0.7882638 1.2506663 -0.4744634 1.5698191
0.35543975 -1.16511 -0.10360079 -0.8496642 -0.31052536 0.6413444 -1.4468653 -0.99080026
-1.4322358 -0.027964285 -0.04122526 0.27138603 -0.96044636 -3.146984 -1.6774799 0.4990658
-1.1988081 1.0299386 -1.5308965 0.41155323 0.22517094 0.65169346 -1.0669409 -0.7824866
-0.2756036 -0.2379167 -2.0535357 0.099499136 -0.2655596 0.6841475 -0.38126612 -0.09027682
00000000: 6b22 ec3e e74a ffbf af95 8c3f e883 ddbf
00000010: b8ae a93e 487c 8f3f 8bbd 53bf 2970 3e3d
00000020: 6058 b8bf cdc4 503f c0fe 09bf b816 763f
00000030: 491d 10bf 2409 13bf 058e 2dc0 8694 b33e
00000040: bbb2 47bf 907c 9c3f ed15 46bf 1767 843d
00000050: 4be0 ad3e 387e 3d3e 7906 bebf 209e 08c0
00000060: fa92 3abf 4b64 b7be 00bd 93bf 21df de3e
00000070: 2188 80bf a94d 9b3f 7c61 c2be 2bf3 863f
00000080: 83cc 46c0 415d 2e3f 1f94 c7bf 1d13 db3f
00000090: ed43 2bc0 e1f9 10c0 0c73 7f3d c252 88bf
000000a0: 7e5e 913e 82f8 3ebf 1273 a4bf e23d 7bbf
000000b0: ee34 0d3f 51c0 0cbe 41a7 673f 7a7a afbf
000000c0: 8ad7 343e 01f9 04c0 b769 8f3e 6993 e5be
000000d0: 7645 bbbf cb9d adbf e23c 073f e7af 3f3f
000000e0: 9f15 0ebf 3734 8bbf d665 223e 9361 01c0
000000f0: 2420 c43e e5d1 09bf 2268 033d 6a4e f5bf
00000100: 9956 c5bf c43d b8bf e375 113f 94d9 e93e
00000110: 3f01 6e3f ff9d 61c0 0126 e3bc 8e58 64c0
00000120: b5a5 ae3e 616a 92bf ad12 d5bf 9693 423f
00000130: e4ae b43e 9546 3e3f dd51 9e3e 3033 98bd
00000140: 6e5c d83e c07a 193f 41f2 9e3d 3417 04c0
00000150: aec4 cbbe eb9a 773c e374 f5be 38ff 0b3f
00000160: 75d1 a0bf 8025 f8bf ac1b ad3e 5b39 3b3f
00000170: 031a 493d bf9c 513f 1fe9 253e f236 d33d
00000180: 9303 873f bff2 babf d76f fb3e 41c3 fabf
00000190: 43ec a73e 6985 c53e 36e9 3ebf 0fea b23b
000001a0: 5aea c4bc 7134 563e 61d1 44bf 2d5c 2b3f
000001b0: b1f3 b7bf 5937 00bd 244c 8abf e654 8b3f
000001c0: 1658 bcbf 5d24 663f 0b2c 29bf 8caf be3f
000001d0: 805f 1f3f b6a6 b63f 6d38 13bf 5843 84bf
000001e0: c593 fe3e c2e3 8fbe 74c2 0dbf 0a25 c8be
000001f0: baaa b6bf 4880 a23f c9b3 19c0 62fa 223f
00000200: 1472 0e3f 4f31 f7bf 0247 103e 2127 1ac0
00000210: bbdb 3bbe 3602 9a3e 1e61 97bf 1168 9ebe
00000220: 7745 dbbf d9c6 3d3e b2fc 0cbf 17d7 083f
00000230: ed0a 56bf 7598 38bf 050a 32c0 2847 893f
00000240: 5c67 27bf ca17 d63e 937e 09bf a2c4 213e
00000250: f3d9 043f 03bb 063f f222 c4bf 2104 47c0
00000260: 5a42 9fbe d273 a6bd bf82 36bf 5347 443f
00000270: 2327 9fbf 18c3 5e3e 9da0 c2be 8926 993f
00000280: 4e0d edbf bd27 1c3e 3d24 e23e c321 933e
00000290: 1a8d eebe a1b9 bbbf 8e7f d53e bdf6 e8bf
000002a0: 4c28 cf3e 631a cbbf d6d6 e4bf cbde 9c3f
000002b0: b883 153e 7311 de3e 2c6a 353d 4444 2bbf
000002c0: 4659 213f 9617 8b3f 0567 073f 8398 56c0
000002d0: 55fa 3cc0 9e39 f33e 7933 16bf d27b a4be
000002e0: f3a2 02c0 38c7 aebf a012 a33e 075f 123e
000002f0: b236 10bf 9341 5f3f 65c8 60bd 9f58 db3e
00000300: 77dc 843f e064 e9bf d531 413e 7a0c 02c0
00000310: 2add 233e 0a4d 283f 14d8 2cbe d346 a33e
00000320: a24b 0abf ab17 1b3f f324 3f3f 4e2f bf3f
00000330: 6a21 b53d d51f 10bf 25a0 d4bf 1063 c13f
00000340: df60 a0bf baf2 8e3f 0e5f 5bbe 7626 873f
00000350: d244 4e3f 2692 dd3f 939f b2bf 1159 24c0
00000360: d6fa 513e 739f 13bf d408 69be 0803 6b3f
00000370: a8cb 49bf d515 a03f deec f2be d5ef c83f
00000380: 33fc b53e 5322 95bf a72c d4bd 9883 59bf
00000390: 2efd 9ebe 262f 243f e232 b9bf 16a5 7dbf
000003a0: 8153 b7bf 5b15 e5bc d1db 28bd 1cf3 8a3e
000003b0: d0df 75bf 3068 49c0 a9b7 d6bf 8d85 ff3e
000003c0: 8b72 99bf 07d5 833f 6bf4 c3bf 1bb7 d23e
000003d0: 3693 663e 62d5 263f 8591 88bf 0b51 48bf
000003e0: ea1b 8dbe 6fa0 73be 216d 03c0 34c6 cb3d
000003f0: 6ef7 87be 4a24 2f3f 5035 c3be 0ee3 b8bd

net.4.bias f4 [16]
-0.03118053 0.01047724 0.022037165 0.19902104 -0.23827696 0.06830879 0.16132167 0.00068285485
-0.2678333 -0.096932836 -0.045113713 -0.17215948 0.0840688 -0.12131673 0.06739894 -0.018465146
00000000: 506e ffbc bba8 2b3c 4987 b43c 2ccc 4b3e
00000010: e0fe 73be 7be5 8b3d 8231 253e 9d01 333a
00000020: 7221 89be b984 c6bd 28c9 38bd 934a 30be
00000030: 432c ac3d e874 f8bd 7508 8a3d 3844 97bc

net.5.weight f4 [16]
0.74660677 0.8303353 0.7667276 1.0754659 0.78750956 0.78226465 0.56538576 0.9653709
0.9760014 0.7896933 1.0361854 1.1258118 1.0006411 0.7214788 0.859015 0.92515016
00000000: 9f21 3f3f db90 543f 4348 443f dea8 893f
00000010: 3a9a 493f 7f42 483f 1fbd 103f 8c22 773f
00000020: 3adb 793f 5729 4a3f b9a1 843f 9a1a 903f
00000030: 0215 803f d6b2 383f 68e8 5b3f a4d6 6c3f

net.5.bias f4 [16]
0.20317057 -0.4849799 -0.46237803 0.1173593 0.18699637 -0.43663073 0.38475347 -0.02715748
0.016598213 -0.36338484 -0.56769794 0.004221448 0.18938157 -0.41116378 -0.5079816 -0.69878733
00000000: f20b 503e 494f f8be d0bc ecbe 135a f03d
00000010: fa7b 3f3e 108e dfbe 68fe c43e 5d79 debc
00000020: faf8 873c 940d babe a754 11bf 1354 8a3b
00000030: 3eed 413e 0f84 d2be 150b 02bf bae3 32bf

net.5.running_mean f4 [16]
-3.577599 -16.27352 -9.080271 0.3124556 -6.566782 -10.745152 3.592762 -9.611094
-2.1516323 -6.8091106 -18.763798 -10.792613 -8.025577 -6.739559 -15.400669 -19.23282
00000000: 62f7 64c0 2b30 82c1 ca48 11c1 2efa 9f3e
00000010: 1423 d2c0 25ec 2bc1 d0ef 6540 0bc7 19c1
00000020: 58b4 09c0 3ce4 d9c0 421c 96c1 8bae 2cc1
00000030: c368 00c1 78aa d7c0 2469 76c1 d1dc 99c1

net.5.running_var f4 [16]
401.0729 405.84674 144.52373 308.9239 375.0612 170.96918 352.58392 515.8933
421.58902 194.12048 320.86963 573.2923 474.64053 186.25508 396.12015 343.74152
00000000: 5589 c843 62ec ca43 1386 1043 4276 9a43
00000010: d587 bb43 1cf8 2a43 be4a b043 2cf9 0044
00000020: 65cb d243 d81e 4243 506f a043 b552 0f44
00000030: fd51 ed43 4d41 3a43 610f c643 eade ab43

net.8.weight f4 [1, 16]
-0.32604197 0.3611004 0.1654799 -0.4165033 -0.3364877 0.23152328 -0.29488468 -0.32190636
-0.27819893 0.29666784 0.40909863 -0.40404683 -0.36625242 0.18425184 0.25055304 0.30616796
00000000: f9ee a6be 27e2 b83e 9073 293e ec3f d5be
00000010: 1e48 acbe 7014 6d3e 20fb 96be e9d0 a4be
00000020: 1770 8ebe d9e4 973e 6075 d13e 3adf cebe
00000030: 7085 bbbe 84ac 3c3e 7d48 803e 0cc2 9c3e
